backup/experimentos_pinn/modelos_salvos/modelo_hcqnn_basic_mlp_n_3_b_1_n_qubits_4_k_2_n_vertex_8_n_l_5_seed_1924.pth (torch, 6104 bytes, 7 tensors)

pre.hidden_layers.0.weight f4 [3, 2]
000000 4c 5a 27 3e b5 4f 26 be 3a 13 13 3f cc 0c 3b 3d
       0.1634304 -0.16241343 0.5745121 0.0456665
000010 1c ae dc 3e ae 26 27 bd
       0.43101585 -0.040808372

pre.hidden_layers.0.bias f4 [3]
000000 e3 f1 74 be e5 fb 81 be b4 93 14 bc
       -0.23920397 -0.25387493 -0.009068418

pre.output_layer.weight f4 [1, 3]
000000 ac f1 36 3d da a3 2f 3f 3d 2a 59 3f
       0.04466407 0.6860939 0.84830076

qnn.q_layer.weights f4 [5, 4]
000000 f5 16 4a 40 2a cc 8f 40 87 c2 6f 3f 4b a2 1e 40
       3.1576512 4.4936724 0.936562 2.4786556
000010 dc a6 53 40 ce 64 82 40 f3 6a 1a 40 24 ec da 40
       3.3070593 4.0748053 2.4127777 6.8413258
000020 c1 ae c0 3f 05 9d c2 40 ae fe 08 40 47 37 8e 3f
       1.5053331 6.0816674 2.1405444 1.1110619
000030 b5 f5 a6 40 b3 e7 72 40 78 bd a9 40 aa 07 3e 3f
       5.2174935 3.7953918 5.3043785 0.74230444
000040 1e 37 c9 3f 8c 3c b4 40 a7 40 e7 3f 0d 8f 86 3e
       1.5719945 5.632391 1.8066605 0.26281014

to_qubits.weight f4 [4, 1]
000000 e2 f0 d7 bc 1c 16 e1 3c 6b cf d4 be ec bb 9c bf
       -0.026359979 0.027476363 -0.41564497 -1.2244849

to_qubits.bias f4 [4]
000000 67 26 0d bf 66 bf c7 be f5 1a ad bc 1c 9a 4e 3f
       -0.5513672 -0.39013213 -0.021131018 0.807039

q_out.weight f4 [1, 8]
000000 10 ba e4 3e 47 42 00 bf 27 d7 0e 3e ca 35 9b 3e
       0.44673204 -0.5010113 0.13949262 0.30314475
000010 f0 0d cc bd af d1 cd 3e 87 47 6a be 84 c4 4c 3d
       -0.09963596 0.40199038 -0.22878848 0.0499921
