backup/experimentos_pinn/modelos_salvos/modelo_qnn_basic_n_qubits_3_n_l_2_seed_1958.pth (torch, 3365 bytes, 4 tensors)

qnn.q_layer.weights f4 [2, 3]
0	0x40608daf	3.5086477
1	0x402760c8	2.615282
2	0x407af227	3.9210298
3	0x40c89ec7	6.269382
4	0x3cfd1c7a	0.030897368
5	0x40160baa	2.344462

to_qubits.weight f4 [3, 2]
0	0x40182c2f	2.3776968
1	0xbcc7b16a	-0.02437659
2	0xbcc104c9	-0.023561852
3	0xbc2bd491	-0.0104876915
4	0xbe9489fe	-0.2901153
5	0xbacb0aa4	-0.0015490842

to_qubits.bias f4 [3]
0	0xbf0877aa	-0.5330759
1	0x3d421e8d	0.047392417
2	0xbf924dc3	-1.1429981

q_out.weight f4 [1, 3]
0	0x3f3fa46f	0.7486028
1	0xbf2dc20f	-0.67874235
2	0x3ed6c7fd	0.41949454
