backup/experimentos_pinn/modelos_salvos/modelo_hqnn_basic_mlp_n_5_b_3_n_qubits_2_n_l_3_seed_1924.pth (torch, 7071 bytes, 11 tensors)

pre.hidden_layers.0.weight f4 [5, 2]
0.4210898 0.16739783 -1.1186144 0.2310948 -0.8475246 -0.17654574 -0.106310345 -0.023746168
1.2968475 -0.14240816
00000000: 1599 d73e 566a 2b3e c22e 8fbf 1ea4 6c3e
00000010: 5ff7 58bf 68c8 34be 3db9 d9bd 5387 c2bc
00000020: 19ff a53f 72d3 11be

pre.hidden_layers.0.bias f4 [5]
-0.6782324 1.0786785 -0.0749761 -0.71850324 0.053087194
00000000: a3a0 2dbf 2312 8a3f 128d 99bd d4ef 37bf
00000010: f571 593d

pre.hidden_layers.1.weight f4 [5, 5]
-0.60353094 0.33054906 0.8657179 0.08612142 -1.395161 -0.41521224 -0.3331118 0.5058111
-0.052164715 -0.14515382 0.88709843 -0.8237409 -0.20763856 0.10800145 -0.0014446761 -0.005877432
-0.55037284 -0.43897638 0.016542852 0.78104097 0.77304155 -0.29462034 0.2349167 0.06525679
0.23134321
00000000: 0181 1abf ba3d a93e b09f 5d3f 6d60 b03d
00000010: a394 b2bf b396 d4be a18d aabe d67c 013f
00000020: abaa 55bd 34a3 14be e218 633f afe0 52bf
00000030: 349f 54be dd2f dd3d 495b bdba 7997 c0bb
00000040: 3ce5 0cbf 83c1 e0be e084 873c 4df2 473f
00000050: 0de6 453f 7ad8 96be 018e 703e 5aa5 853d
00000060: 3ce5 6c3e

pre.hidden_layers.1.bias f4 [5]
0.12982936 -0.2656221 -0.2501777 -0.08476394 -0.36472407
00000000: fdf1 043e 9fff 87be 4b17 80be b798 adbd
00000010: 1dbd babe

pre.hidden_layers.2.weight f4 [5, 5]
-0.29542804 -0.2528664 0.95415395 0.7007793 0.5600189 0.7084298 0.1525436 -0.05999901
-0.62831706 -0.09352399 0.29734573 0.18119965 -0.35758567 -0.34077573 -0.37712863 -2.586172
-0.43608016 0.160806 2.3327808 0.13330336 -0.07802052 0.17754623 -0.7381513 0.0042884876
0.18374883
00000000: 5842 97be b477 81be 6f43 743f 4666 333f
00000010: 665d 0f3f a85b 353f 6434 1c3e 86c1 75bd
00000020: 63d9 20bf 8189 bfbd b33d 983e 678c 393e
00000030: 7815 b7be 287a aebe 0117 c1be d883 25c0
00000040: e645 dfbe 54aa 243e 484c 1540 ad80 083e
00000050: 39c9 9fbd aece 353e 7cf7 3cbf 7186 8c3b
00000060: a728 3c3e

pre.hidden_layers.2.bias f4 [5]
-0.36045006 -0.32158053 0.07180584 0.25563115 0.16417027
00000000: e98c b8be 34a6 a4be f10e 933d 16e2 823e
00000010: 401c 283e

pre.output_layer.weight f4 [1, 5]
-0.49204785 0.72016937 0.48058295 -0.23436944 0.23835103
00000000: b2ed fbbe 055d 383f f80e f63e 8bfe 6fbe
00000010: 4b12 743e

qnn.q_layer.weights f4 [3, 2]
3.1616266 4.5705023 0.7575841 2.6517751 3.495148 4.116692
00000000: 1758 4a40 8e41 9240 08f1 413f afb6 2940
00000010: 81b0 5f40 f1bb 8340

to_qubits.weight f4 [2, 1]
-1.0970873 1.0071841
00000000: 5b6d 8cbf 69eb 803f

to_qubits.bias f4 [2]
0.8240487 0.24609406
00000000: dbf4 523f 1500 7c3e

q_out.weight f4 [1, 2]
-0.759794 0.3977303
00000000: dc81 42bf 4ea3 cb3e
