backup/experimentos_pinn/modelos_salvos/modelo_hqnn_strong_mlp_n_2_b_1_n_qubits_2_n_l_4_seed_2012.pth (torch, 5239 bytes, 7 tensors)

pre.hidden_layers.0.weight f4 [2, 2]
0	0xbf05f65e	-0.5232905
1	0x3bd64e45	0.006540092
2	0x40388e4a	2.8836846
3	0xbd0ba1fb	-0.034090023

pre.hidden_layers.0.bias f4 [2]
0	0x3f119d24	0.568804
1	0xbdaa78d6	-0.08323829

pre.output_layer.weight f4 [1, 2]
0	0x3f9cf753	1.2262977
1	0xbf33ce6a	-0.7023684

qnn.q_layer.weights f4 [4, 2, 3]
0	0x3fee1eff	1.8603209
1	0x40a2a291	5.0823445
2	0x4097d633	4.7448974
3	0x3fdc4134	1.7207398
4	0x407df28e	3.9679294
5	0xbeaa5e97	-0.3327529
6	0x3f941a0f	1.1570452
7	0x3fac3d30	1.3456173
8	0xbe861369	-0.26186684
9	0x3eb2d424	0.34927475
10	0x3f866545	1.0499655
11	0x408d0f55	4.4081216
12	0x3feb4aae	1.8382165
13	0x407b7c2d	3.929454
14	0x40687987	3.6324174
15	0x40c27f8b	6.078069
16	0x3f9bf7de	1.2185018
17	0x4001b9cb	2.026965
18	0x409960b4	4.7930546
19	0x3e29c068	0.16577303
20	0x409c47f1	4.883782
21	0x3f8bffba	1.0937417
22	0x3ee72d60	0.45151806
23	0x40c52436	6.1606703

to_qubits.weight f4 [2, 1]
0	0xbf8e7b14	-1.113131
1	0x3fa43d28	1.2831163

to_qubits.bias f4 [2]
0	0xbe092464	-0.13392788
1	0x3f8efc3c	1.1170726

q_out.weight f4 [1, 2]
0	0x3f83d79c	1.0300174
1	0x3f599f15	0.85008365
