backup/experimentos_pinn/modelos_salvos/modelo_mlp_n_10_b_2_seed_1962.pth (torch, 3997 bytes, 5 tensors)

hidden_layers.0.weight f4 [10, 2]
000000 17 c6 21 be e9 be a1 3c 99 33 aa 3f 3d 27 c7 3b
       -0.15798222 0.019744353 1.3296996 0.0060776756
000010 e5 f0 34 3e 80 8c a1 3e 75 e7 e8 3d d2 47 ef 3e
       0.17670019 0.31552505 0.11372272 0.46734482
000020 c2 a2 3c be 69 b2 22 3f 6e 4d ed 3e 5a ef d6 3e
       -0.18421462 0.6355348 0.46348137 0.41979486
000030 49 1e 10 3f 8a 04 50 3d 2d a0 20 3f 3d d4 eb be
       0.5629621 0.05078558 0.6274441 -0.46060362
000040 05 91 07 bf 03 02 bb be 7d aa d1 3f 6b 29 4b bd
       -0.5295566 -0.36524972 1.6380154 -0.049600046

hidden_layers.0.bias f4 [10]
000000 8c 3d 15 bf 38 91 4e bf 44 14 25 be 88 56 fa 3e
       -0.5829704 -0.80690336 -0.16121012 0.48894143
000010 93 36 ac 3e 70 d3 2b 3f bf 4e 03 be dd f1 fa 3e
       0.33635387 0.67119503 -0.12823008 0.49012652
000020 59 2b 81 3d fd 27 42 be
       0.06307096 -0.18960567

hidden_layers.1.weight f4 [10, 10]
000000 78 cb e2 3d 7a 39 96 be e9 fd 65 be 58 bf f1 bc
       0.11073965 -0.29340726 -0.2246014 -0.029510185
000010 8d 0a 42 3e b9 c1 ac 3e 27 fd b2 be 1e 55 95 3d
       0.18949337 0.3374155 -0.34958765 0.072916254
000020 70 2e e4 3d d4 5f 8d 3e 99 17 78 3e 17 2a 19 3f
       0.1114167 0.27612174 0.24227752 0.5982985
000030 30 2a 96 bd 54 27 81 bc 8f 01 cd bd 0b 40 c9 be
       -0.073322654 -0.015765823 -0.10010063 -0.39306673
000040 c1 c2 ea 3e 80 36 cb 3e bf 66 bc be 3f 38 ea bc
       0.4585171 0.39690018 -0.3679714 -0.028591273
000050 31 3d 03 be 4c 2a af bc da fc 9f bd 51 29 21 3d
       -0.12816311 -0.021382473 -0.078118995 0.039346043
000060 29 35 72 3e 5d 1c a1 bd 48 26 86 3e f2 11 3e 3e
       0.23653091 -0.07866738 0.2620108 0.18561533
000070 75 70 4f bc c4 5c 3f bf 65 a8 15 bd dc 48 96 3d
       -0.012661089 -0.74750924 -0.036537547 0.073381156
000080 bc f2 29 bd a1 f2 58 3d 9c a1 8a bb 45 2f 58 3d
       -0.041491255 0.052965764 -0.004230691 0.052779455
000090 aa d1 77 3e 03 0e 74 3e 65 e2 be 3d 8d 7e 7e be
       0.24201074 0.2383347 0.09320525 -0.24852963
0000a0 69 eb c9 be b5 65 00 3d 00 bc 77 3e 86 81 25 3e
       -0.39437416 0.031346995 0.2419281 0.1616269
0000b0 85 98 c4 3d d6 a2 dd bd fa 63 1a be c1 94 02 3e
       0.09599403 -0.10822074 -0.150772 0.12752058
0000c0 2a 34 bd 3d a7 8b b0 3e ca 80 f3 bd f5 01 9a 3e
       0.09238465 0.34481546 -0.11889799 0.30079618
0000d0 cb af 0e 3e 2a f1 04 3e 25 59 9b bd c3 7e 9e bd
       0.13934247 0.12982622 -0.07585362 -0.07739022
0000e0 bc ae b8 3b 47 0c e5 bd 2b d5 26 3e b0 8b 9b be
       0.0056360643 -0.11183982 0.16292255 -0.3038001
0000f0 6d 2e a5 3e 2e 39 26 c0 8e b1 0f bf 8e b5 36 bd
       0.32261983 -2.59724 -0.561303 -0.044606738
000100 1d 11 1e 3f 5e 47 28 be f5 e8 d0 bf 85 4b 19 bf
       0.6174486 -0.16433474 -1.6321093 -0.5988086
000110 a9 12 00 3f fe 13 c8 bf 0c f3 6c be 04 03 9b bd
       0.50028473 -1.5631101 -0.2313959 -0.075689346
000120 8b c2 ce bd 6f da 34 3e ac 6d 97 be 76 77 7a be
       -0.100957 0.17661451 -0.2957586 -0.24459633
000130 d8 b6 1a be 6c e7 da 3d f3 37 7f be e8 74 c8 bd
       -0.15108812 0.106886715 -0.24923687 -0.09787923
000140 44 be 4f 3e 6f d0 75 bf f8 c1 22 bf cc 3a 44 3e
       0.20287424 -0.9602117 -0.6357722 0.19163054
000150 0b 20 fc 3e c4 dd 31 3f 5e 5b 51 bf 5b 87 f9 bd
       0.49243197 0.6947901 -0.8178004 -0.1218402
000160 93 4e 15 3f d7 ca 5c be bc af c8 be 0b 43 8d 3d
       0.5832302 -0.21561752 -0.39196575 0.06897553
000170 09 24 d2 3e f0 3f bb 3e 89 fb 39 be 73 d0 9a 3e
       0.41043118 0.36572218 -0.1816236 0.3023716
000180 b1 01 1b be 6e a6 b6 3e 1b 62 ed bd fd 5c 36 bd
       -0.15137364 0.3567385 -0.11590978 -0.044522274

hidden_layers.1.bias f4 [10]
000000 b0 27 86 bd 62 5e 16 be 27 3e 0b bd a3 7c a3 3e
       -0.065505385 -0.14684442 -0.03399482 0.31931028
000010 8f 61 79 3e f7 45 9a 3e 2e 19 e1 3e 32 05 60 be
       0.24353622 0.30131504 0.43964523 -0.21876982
000020 2c f4 d0 3e 93 1a 3f 3d
       0.40811288 0.046656203

output_layer.weight f4 [1, 10]
000000 29 81 a6 be 7a d9 d6 3e fb bf b7 3e 8f e7 6d 3e
       -0.32520416 0.41962796 0.35888657 0.23232864
000010 c6 ab ea 3d 7d 24 01 3f 5f c3 00 be 8b 4a c5 3d
       0.114585444 0.504463 -0.12574528 0.096333586
000020 44 db 76 be b3 d6 b4 3e
       -0.2410708 0.35320053
