backup/experimentos_pinn/modelos_salvos/modelo_cqnn_strong_n_qubits_4_k_2_n_vertex_6_n_l_3_seed_1926.pth (torch, 4064 bytes, 4 tensors)

qnn.q_layer.weights f4 [3, 4, 3]
000000 82 2c 51 3f 19 c4 70 40 d7 73 f3 3f ad 27 ae 40
       0.8170854 3.7619689 1.9019727 5.442343
000010 e2 a9 3a 40 e5 2a c3 3f cb 87 64 40 d4 85 6a 40
       2.9166188 1.5247465 3.5707881 3.6644182
000020 d9 58 ae 40 a7 24 3c 40 e5 72 f5 3f 2d 5c 3b 40
       5.4483457 2.939737 1.9175688 2.927501
000030 b3 12 84 3f 96 38 be 3f de 3d b7 3e e0 90 28 3f
       1.0318207 1.4861019 0.35789388 0.6584606
000040 ad 04 a1 40 f4 ab 80 40 4d 4b a3 40 1a 1f b2 40
       5.031821 4.0209904 5.102942 5.5662966
000050 45 6c b6 40 2c 04 9b 40 d1 bb 05 40 51 f4 bc 3f
       5.7007165 4.8442593 2.0895884 1.476206
000060 45 23 a1 40 64 7f c1 3d 36 88 be 40 ee e5 84 40
       5.0355554 0.09448126 5.9541273 4.1530676
000070 52 2e 9a 40 43 0b 98 40 f7 c2 b4 40 a9 fb 79 40
       4.8181543 4.7513747 5.6487994 3.905985
000080 b6 eb b8 40 2b 62 86 40 af c0 a8 3f cb 8e b7 40
       5.7787733 4.1994834 1.3183802 5.736181

to_qubits.weight f4 [4, 2]
000000 a4 6d 51 3f d2 38 29 bc 03 b7 9a bc b5 92 60 3a
       0.81807923 -0.010328488 -0.018886095 0.0008566783
000010 1e 27 8c 3f ea a8 43 bc cf e1 a4 bf d4 3f 91 3c
       1.0949438 -0.011942128 -1.2881411 0.017730631

to_qubits.bias f4 [4]
000000 4b 16 c2 3d 5a 45 58 bf 52 26 db be ba 63 ba be
       0.09476908 -0.8448082 -0.42802674 -0.3640421

q_out.weight f4 [1, 6]
000000 71 ed b2 bc 5b 03 a8 be ae 55 86 3e 55 38 12 bf
       -0.021841737 -0.3281506 0.26237243 -0.57117206
000010 27 dc 00 3f c3 85 11 bf
       0.50335926 -0.5684473
