backup/experimentos_pinn/modelos_salvos/modelo_mlp_n_2_b_10_seed_1997.pth (torch, 8585 bytes, 21 tensors)

hidden_layers.0.weight f4 [2, 2]
0	0xbf2d0f95	-0.676019
1	0x3c0be44d	0.008538318
2	0xbfc87681	-1.5661165
3	0x3c9a0873	0.018802857

hidden_layers.0.bias f4 [2]
0	0x3ee6f6fe	0.45110315
1	0x3e106b03	0.14103322

hidden_layers.1.weight f4 [2, 2]
0	0x3fcddb90	1.608263
1	0x4017b021	2.370125
2	0xbf5b46e7	-0.85655063
3	0xbf1bf05a	-0.6091362

hidden_layers.1.bias f4 [2]
0	0xbf12cd79	-0.57344776
1	0xbf68380a	-0.9071051

hidden_layers.2.weight f4 [2, 2]
0	0x3e8753eb	0.26431212
1	0xbf8fb340	-1.1226578
2	0x3fcdcbd0	1.6077824
3	0xbf88b259	-1.0679427

hidden_layers.2.bias f4 [2]
0	0x3f601c7c	0.87543464
1	0xbdcac40b	-0.099006735

hidden_layers.3.weight f4 [2, 2]
0	0x3edb9de9	0.42893913
1	0x3f3e12d0	0.74247456
2	0xbfa08ba9	-1.2542621
3	0xbf494120	-0.78615

hidden_layers.3.bias f4 [2]
0	0x3e5ff5c3	0.21871094
1	0xbf3970cb	-0.72437733

hidden_layers.4.weight f4 [2, 2]
0	0xbf6a93ba	-0.9163166
1	0xbf0f461d	-0.5596636
2	0x3fb55868	1.4167604
3	0xbf579995	-0.8421872

hidden_layers.4.bias f4 [2]
0	0xbefedddd	-0.49778643
1	0xbe76cb8c	-0.24101084

hidden_layers.5.weight f4 [2, 2]
0	0x3ec97718	0.39348674
1	0x3f216979	0.63051564
2	0xbed5cf2a	-0.41759616
3	0x3fa4132f	1.2818354

hidden_layers.5.bias f4 [2]
0	0x3d82ea2f	0.06392323
1	0xba34c1c6	-0.00068953296

hidden_layers.6.weight f4 [2, 2]
0	0xbf730731	-0.9493285
1	0x3ce491ba	0.02790152
2	0x3f62e1c7	0.8862576
3	0x3f15fc5e	0.58588207

hidden_layers.6.bias f4 [2]
0	0xbedac451	-0.42727903
1	0xbcf3ca0e	-0.029759433

hidden_layers.7.weight f4 [2, 2]
0	0xbe68f71e	-0.22750518
1	0xbf72c22e	-0.94827545
2	0x3ec41de7	0.38304064
3	0xbf9b9f8c	-1.2158065

hidden_layers.7.bias f4 [2]
0	0x3f1ba7ac	0.6080272
1	0x3f34aa3e	0.7057227

hidden_layers.8.weight f4 [2, 2]
0	0xbf0ad96c	-0.5423801
1	0xbf0aab48	-0.54167604
2	0xbe637722	-0.22213414
3	0xbf40fe82	-0.7538835

hidden_layers.8.bias f4 [2]
0	0x3ea3963e	0.31950563
1	0xbdcdffaf	-0.100585334

hidden_layers.9.weight f4 [2, 2]
0	0x3f15d646	0.5853008
1	0x3e97dfdf	0.29662988
2	0x3dee94c6	0.1164947
3	0x3f86e16a	1.0537541

hidden_layers.9.bias f4 [2]
0	0xbeee92c4	-0.46596348
1	0x3cba2e29	0.022727089

output_layer.weight f4 [1, 2]
0	0xbf66d053	-0.9016163
1	0xbf4a1de8	-0.78951883
