backup/experimentos_pinn/modelos_salvos/modelo_cqnn_strong_n_qubits_4_k_1_n_vertex_12_n_l_1_seed_1997.pth (torch, 3947 bytes, 4 tensors)

qnn.q_layer.weights f4 [1, 4, 3]
2.6824594 4.1602554 0.40440086 1.3608634 4.363658 4.7670255 4.6213007 4.8042765
0.17243098 1.6529531 0.49593157 2.1395688
00000000: 6aad 2b40 d020 8540 a10d cf3e c630 ae3f
00000010: 16a3 8b40 798b 9840 b2e1 9340 a2bc 9940
00000020: bf91 303e f893 d33f beea fd3e b2ee 0840

to_qubits.weight f4 [4, 2]
-0.8557125 0.010977134 0.14448565 -0.0025331571 1.4752396 -0.01869492 0.3952797 -0.0032955778
00000000: f90f 5bbf 70d9 333c 0cf4 133e 5303 26bb
00000010: a7d4 bc3f 1726 99bc 1a62 ca3e 9ffa 57bb

to_qubits.bias f4 [4]
-0.1856707 -0.4742124 -0.38753012 -0.22909099
00000000: 7620 3ebe f8cb f2be 596a c6be d496 6abe

q_out.weight f4 [1, 12]
-0.050617836 -0.061664697 0.014470773 0.19901952 -0.3725238 -0.15610822 0.09948474 -0.40689006
-0.10746118 0.30597842 0.10747948 -0.01500866
00000000: a654 4fbd 1f94 7cbd d216 6d3c c6cb 4b3e
00000010: 71bb bebe d5da 1fbe a8be cb3d e553 d0be
00000020: 9b14 dcbd 34a9 9c3e 341e dc3d e2e6 75bc
