backup/experimentos_pinn/modelos_salvos/modelo_hqnn_strong_mlp_n_3_b_1_n_qubits_3_n_l_5_seed_1997.pth (torch, 5175 bytes, 7 tensors)

pre.hidden_layers.0.weight f4 [3, 2]
00000000: 866f 14bf 7798 683d f8cd 0540 b3c8 e2bc
00000010: fd9d 02bf a9e0 31bd
-0.5798267 0.056786027 2.0906963 -0.027683591 -0.5102232 -0.043427143

pre.hidden_layers.0.bias f4 [3]
00000000: f13c 133e 5778 1ebb c8c7 1b3d
0.14378716 -0.0024180615 0.038032323

pre.output_layer.weight f4 [1, 3]
00000000: c4d7 113f 1379 e2be b33c 1b3f
0.5696986 -0.44232997 0.60639495

qnn.q_layer.weights f4 [5, 3, 3]
00000000: b388 2540 104a 8b40 c39b ab3f 28c3 bd3f
00000010: 5a15 9b40 9c8e 9d40 e0ae 7b40 7c34 9740
00000020: 0233 d73e 7c66 a03f c974 383f b6aa 0240
00000030: 6740 4740 1fc7 393f ea23 a040 4fc1 8440
00000040: d709 c840 30a0 f83f 3cc9 2640 9ad7 8140
00000050: e933 053f a7fd 0a40 7d04 1140 5d27 1540
00000060: 5261 9e3d 38dc 2c40 8068 a040 e8e5 3340
00000070: f098 0f3f 608d 983f 83b2 6a40 99c8 3b40
00000080: 5d54 ee3f 898d c040 9a1d 5240 17d9 2140
00000090: 21c0 3d3e a4a0 8840 8989 8940 2c5e 4940
000000a0: 11ff 723f ad00 5340 4036 0a40 198d 1940
000000b0: 80be 9540
2.5864685 4.352791 1.340691 1.4825182 4.8463564 4.9236584 3.9325485 4.725157
0.42031103 1.2531276 0.720532 2.0416694 3.1133058 0.7256946 5.004384 4.1485972
6.251201 1.9423885 2.6060324 4.0575686 0.52032334 2.1717317 2.265899 2.3305275
0.07733406 2.700941 5.0127563 2.8109074 0.5609274 1.1918144 3.6671455 2.9341185
1.8619496 6.0172772 3.2830567 2.528875 0.18530323 4.2696095 4.298039 3.1463728
0.9492045 3.2969162 2.1595612 2.399237 4.6795044

to_qubits.weight f4 [3, 1]
00000000: c3e4 99bf 4d48 ab3e a580 4ebf
-1.2022938 0.334536 -0.80665046

to_qubits.bias f4 [3]
00000000: 1432 b1bf 866c 9fbd 46f3 85be
-1.3843408 -0.07784371 -0.26162165

q_out.weight f4 [1, 3]
00000000: 6630 65bf ee4f 1bbf 4aba 3f3f
-0.89526975 -0.6066884 0.7489363
