backup/experimentos_pinn/modelos_salvos/modelo_hcqnn_basic_mlp_n_5_b_1_n_qubits_4_k_3_n_vertex_5_n_l_3_seed_1925.pth (torch, 5976 bytes, 7 tensors)

pre.hidden_layers.0.weight f4 [5, 2]
0	0x3f6ec26e	0.93265426
1	0xbdb41328	-0.08792716
2	0x3f247180	0.6423569
3	0x3ddb7b84	0.10716918
4	0xbf379eeb	-0.71726865
5	0xbca3e637	-0.020007236
6	0x3f0f3a1e	0.55948055
7	0xbd91c22a	-0.07117112
8	0x3f029b82	0.51018536
9	0x3ee5be26	0.44871634

pre.hidden_layers.0.bias f4 [5]
0	0xbd57e731	-0.052710716
1	0xbe929183	-0.28626642
2	0x3ddf5c26	0.10906248
3	0xbf001645	-0.5003398
4	0xbec8620d	-0.39137307

pre.output_layer.weight f4 [1, 5]
0	0xbf064d60	-0.52461815
1	0xbf2c56b1	-0.6731978
2	0x3f139934	0.57655644
3	0xbf061ab6	-0.5238451
4	0x3d69cc20	0.057079434

qnn.q_layer.weights f4 [3, 4]
0	0x40a5ee11	5.185311
1	0x4056528b	3.348788
2	0x405a356d	3.4095109
3	0x409ad792	4.8388147
4	0x4055668e	3.3343844
5	0x404275cd	3.03844
6	0x40511b92	3.2673078
7	0x3f4a8362	0.79106724
8	0x4068b467	3.636011
9	0x40769015	3.852544
10	0x3fd77370	1.6832104
11	0x3feb1019	1.8364288

to_qubits.weight f4 [4, 1]
0	0x3f6da981	0.9283677
1	0xbebadeac	-0.3649801
2	0x3fad2af4	1.3528733
3	0x3fe21902	1.7663882

to_qubits.bias f4 [4]
0	0xbed05de4	-0.40696633
1	0xbf80a947	-1.0051659
2	0x3f5e3c66	0.8681091
3	0xbe54a88b	-0.20767419

q_out.weight f4 [1, 5]
0	0x3f1b8afe	0.6075896
1	0xbe3dd28d	-0.1853735
2	0x3ed49569	0.4152024
3	0xbdc345e2	-0.095348135
4	0x3ee407e2	0.44537264
