backup/experimentos_pinn/modelos_salvos/modelo_cqnn_strong_n_qubits_4_k_2_n_vertex_5_n_l_1_seed_1962.pth (torch, 3936 bytes, 4 tensors)

qnn.q_layer.weights f4 [1, 4, 3]
0	0x405df0dd	3.4678261
1	0x4089e661	4.3093724
2	0x40ae64c0	5.4497986
3	0x3ff402a7	1.906331
4	0x407b524d	3.9268982
5	0x40b0f09e	5.529372
6	0x40834cf1	4.1031423
7	0x40bb1316	5.84608
8	0x405f46ae	3.488689
9	0x40ad558a	5.416692
10	0x40a3ccc1	5.1187444
11	0x408f7dd9	4.4841123

to_qubits.weight f4 [4, 2]
0	0x3ee3eab6	0.44515008
1	0xbbb412b5	-0.005495394
2	0x3f104014	0.56347775
3	0xbeb3a6c1	-0.3508816
4	0xbf4891bb	-0.7834737
5	0x3d004650	0.031317055
6	0x3f153b2b	0.5829341
7	0xbbd99bc0	-0.0066408813

to_qubits.bias f4 [4]
0	0xbf8d47f1	-1.103758
1	0xbee0bf6a	-0.43896037
2	0xbc106aef	-0.008814557
3	0x3f233a98	0.6376128

q_out.weight f4 [1, 5]
0	0x3e93b459	0.28848532
1	0x3e8e5fb4	0.2780739
2	0xbf4f1573	-0.80892104
3	0x3ef9443b	0.48684868
4	0x3f06aaab	0.5260417
