backup/experimentos_pinn/modelos_salvos/modelo_hqnn_strong_mlp_n_2_b_1_n_qubits_3_n_l_3_seed_2025.pth (torch, 5239 bytes, 7 tensors)

pre.hidden_layers.0.weight f4 [2, 2]
0.9160439 -0.003050583 -0.6161352 0.018137597
00000000: da81 6a3f 4aec 47bb 09bb 1dbf 4c95 943c

pre.hidden_layers.0.bias f4 [2]
0.21022472 -0.07051277
00000000: 2645 573e 0069 90bd

pre.output_layer.weight f4 [1, 2]
0.8845373 -0.4891906
00000000: 0971 623f 3177 fabe

qnn.q_layer.weights f4 [3, 3, 3]
3.9694052 6.2012687 1.4648392 2.27643 4.404184 -0.13920961 0.3828941 4.918869
2.079785 3.5697386 5.7025266 2.5820937 1.6275656 1.770232 0.25586167 2.1024587
5.49519 5.5896187 0.74462456 1.8891227 3.331912 3.149011 0.22089137 5.49034
3.9684668 1.7590177 6.179348
00000000: bc0a 7e40 cb70 c640 da7f bb3f 07b1 1140
00000010: 13ef 8c40 f78c 0ebe b20a c43e 6067 9d40
00000020: 331b 0540 9976 6440 197b b640 0641 2540
00000030: 1254 d03f f696 e23f 4d00 833e af8e 0640
00000040: 99d8 af40 28de b240 b79f 3e3f c6ce f13f
00000050: 0c3e 5540 6589 4940 5931 623e deb0 af40
00000060: 5cfb 7d40 7e27 e13f 38bd c540

to_qubits.weight f4 [3, 1]
0.9116406 -0.44388735 1.4144839
00000000: 4761 693f 3445 e3be cf0d b53f

to_qubits.bias f4 [3]
0.5492218 0.4003363 0.41904902
00000000: cd99 0c3f e1f8 cc3e 988d d63e

q_out.weight f4 [1, 3]
1.2568012 0.9802338 0.37540027
00000000: ddde a03f 9af0 7a3f 7734 c03e
