backup/experimentos_pinn/modelos_salvos/modelo_hqnn_strong_mlp_n_5_b_3_n_qubits_5_n_l_1_seed_1926.pth (torch, 7282 bytes, 11 tensors)

pre.hidden_layers.0.weight f4 [5, 2]
-1.0161332 0.14424905 0.21487293 0.27094376 0.6618495 0.11240707 1.109551 -0.039248887
-0.68148047 0.011327978
00000000: a710 82bf 06b6 133e a607 5c3e 24b9 8a3e
00000010: f86e 293f ae35 e63d c405 8e3f 71c3 20bd
00000020: 8175 2ebf fc98 393c

pre.hidden_layers.0.bias f4 [5]
-0.28888768 1.0168297 -0.1604186 0.10233703 0.40661874
00000000: 16e9 93be 7a27 823f c644 24be 1496 d13d
00000010: 5530 d03e

pre.hidden_layers.1.weight f4 [5, 5]
0.8027126 0.08021612 -0.36660296 -0.6108012 0.32829663 0.51254815 0.32498893 -0.45764133
-0.48182562 0.20633577 0.4398546 -0.11342862 -0.7334232 -0.8547066 0.28916165 -0.3449347
-0.24254067 0.26401716 -0.0043050796 -0.94653153 -0.2922014 -0.096806444 0.90159523 0.4194457
-0.84049004
00000000: 937e 4d3f 5948 a43d 62b3 bbbe 785d 1cbf
00000010: 7f16 a83e 5b36 033f f364 a63e f74f eabe
00000020: d9b1 f6be af49 533e 9f34 e13e 444d e8bd
00000030: 9fc1 3bbf 0dce 5abf ff0c 943e 489b b0be
00000040: 955c 78be 422d 873e a011 8dbb e44f 72bf
00000050: 6c9b 95be 7542 c6bd f2ce 663f 96c1 d63e
00000060: 5b2a 57bf

pre.hidden_layers.1.bias f4 [5]
0.26226667 0.3965575 0.44425315 -0.58411986 0.07499943
00000000: d147 863e 9609 cb3e 2675 e33e e188 15bf
00000010: 4d99 993d

pre.hidden_layers.2.weight f4 [5, 5]
-0.14658217 -0.7536773 -0.1907046 0.19357973 -0.13057625 -0.20851547 0.029621294 0.096098475
-0.55107397 -0.13384952 -0.3556682 0.41712484 0.26919734 -0.24043687 -0.26453206 0.9257631
0.9851368 0.67161196 -0.019956982 -1.0917152 0.12650138 -0.5105267 -0.11224856 0.81082916
-0.10694501
00000000: a319 16be fff0 40bf 1148 43be c439 463e
00000010: c8b5 05be 1485 55be 5ba8 f23c 47cf c43d
00000020: 2f13 0dbf d90f 09be 241a b6be 6391 d53e
00000030: 3cd4 893e 1535 76be bf70 87be cffe 6c3f
00000040: ed31 7c3f c3ee 2b3f d37c a3bc 53bd 8bbf
00000050: 9489 013e e1b1 02bf 93e2 e5bd 8092 4f3f
00000060: fc05 dbbd

pre.hidden_layers.2.bias f4 [5]
0.117976405 0.49867716 0.6075605 -0.24613826 -0.22119334
00000000: 9d9d f13d 9d52 ff3e 1689 1b3f ab0b 7cbe
00000010: 8280 62be

pre.output_layer.weight f4 [1, 5]
0.15541989 -0.35321763 -0.6621424 -0.60046935 0.55644524
00000000: 6426 1f3e f1d8 b4be 2a82 29bf 5cb8 19bf
00000010: 3273 0e3f

qnn.q_layer.weights f4 [1, 5, 3]
1.2026719 3.8231745 1.725225 5.198166 2.8935423 1.6282711 3.559111 3.3871918
5.1614246 2.569788 2.1178982 3.1209645 1.430156 1.5416325 0.16077772
00000000: 27f1 993f e4ae 7440 2cd4 dc3f 6057 a640
00000010: cc2f 3940 306b d03f 7ac8 6340 c0c7 5840
00000020: 642a a540 6877 2440 a58b 0740 e2bd 4740
00000030: 5a0f b73f 3754 c53f eaa2 243e

to_qubits.weight f4 [5, 1]
-0.29108813 -0.32552916 -0.016784467 1.2434937 0.68641317
00000000: 8109 95be c2ab a6be 947f 89bc cd2a 9f3f
00000010: c6b8 2f3f

to_qubits.bias f4 [5]
-0.35597122 0.18365386 -0.13058624 -0.6848612 1.0094187
00000000: dc41 b6be c20f 3c3e 66b8 05be 1053 2fbf
00000010: a234 813f

q_out.weight f4 [1, 5]
0.24792303 0.43194366 -0.52762187 0.542966 -0.5525602
00000000: 89df 7d3e b827 dd3e 3a12 07bf d2ff 0a3f
00000010: 9674 0dbf
