backup/experimentos_pinn/modelos_salvos/modelo_cqnn_basic_n_qubits_4_k_2_n_vertex_2_n_l_1_seed_1997.pth (torch, 3861 bytes, 4 tensors)

qnn.q_layer.weights f4 [1, 4]
000000 7b 44 26 40 b4 d7 80 40 99 57 24 bf 18 69 b2 3f
       2.5979297 4.026331 -0.64196163 1.3938322

to_qubits.weight f4 [4, 2]
000000 aa 67 aa 3e 7b 47 d1 3e 2e 20 31 3e 27 b0 ab 3e
       0.33282214 0.40874848 0.17297432 0.3353283
000010 45 0a 06 c0 af 13 af 3c 71 81 15 be 2d 0c ee 3a
       -2.0943768 0.02137169 -0.14600159 0.0018161588

to_qubits.bias f4 [4]
000000 c6 7d 8f bd af 18 15 bf c4 e7 8d bf f7 c7 8c 3e
       -0.07006411 -0.5824079 -1.1086354 0.2749631

q_out.weight f4 [1, 2]
000000 c8 a0 4e 3f 83 39 2d bf
       0.8071408 -0.6766588
