backup/experimentos_pinn/modelos_salvos/modelo_cqnn_strong_n_qubits_4_k_1_n_vertex_12_n_l_5_seed_1925.pth (torch, 4139 bytes, 4 tensors)

qnn.q_layer.weights f4 [5, 4, 3]
00000000: 2328 a540 f5e5 4f40 3b21 4f40 c62f 8540
00000010: 9dea 5f40 7081 3440 ec4a 6e40 bcc0 583f
00000020: 9b16 5140 1276 6640 01af 1d40 bd96 da3f
00000030: 2214 b640 99e9 0440 a9ba 8140 7e27 9d40
00000040: 6a94 0c40 5360 1540 916d 6e40 420c 9440
00000050: 04aa c940 d4ee 9340 e138 8840 2dcf bc3f
00000060: 8f9e 4040 ed72 d5bd 04db 983f b6a2 e73f
00000070: 2d5f d23f 300e 8b40 8a6a 1840 f2e0 ac40
00000080: e49f e23e 18d8 aa40 8b79 3d40 4df3 b540
00000090: 89c1 c340 13b5 0b40 800b a73e 3ab6 b340
000000a0: 28c1 ae3e d2eb 9040 4515 ae3f 4d3f 8440
000000b0: 35c7 2a40 3269 c040 d6f7 6340 4421 933f
000000c0: 6a45 c240 1e73 a440 3db2 243d 3354 e83e
000000d0: 94cf 6040 2f9c fa3d 4e2b 9a40 81c6 c73f
000000e0: c616 5440 2518 c840 e553 9440 62a0 b340
5.1611495 3.2484105 3.2364032 4.1620817 3.4986947 2.8204002 3.7233229 0.8466909
3.2670047 3.6009564 2.4638064 1.7077252 5.6899576 2.0767577 4.0540357 4.911071
2.1965585 2.3340042 3.7254374 4.6264963 6.302004 4.622904 4.256943 1.4750725
3.0096776 -0.10422311 1.1941838 1.809653 1.6435295 4.345482 2.3815026 5.402459
0.44262612 5.3388786 2.9605434 5.68595 6.117375 2.182927 0.3262596 5.6159945
0.34131742 4.5287867 1.3600241 4.132727 2.6684086 6.012841 3.5620017 1.1494527
6.0709734 5.1390524 0.040209044 0.4537674 3.5126696 0.12236821 4.817786 1.5607454
3.31389 6.2529473 4.635241 5.613328

to_qubits.weight f4 [4, 2]
00000000: 211c 99bf 7dd7 883b 586b fbbd d2e6 12bb
00000010: d8b4 54bf 2378 bd3c 2b8d bbbe 0b9e 6a3d
-1.1961709 0.004176079 -0.122763336 -0.0022415412 -0.83088446 0.023128575 -0.3663114 0.057279628

to_qubits.bias f4 [4]
00000000: d93a f83e 8a7c 963b fcb0 f13e d8b7 b43e
0.48482397 0.004592483 0.4720534 0.35296512

q_out.weight f4 [1, 12]
00000000: 6d6e ae3e 481c bbbe 0410 8fbe 9075 a4be
00000010: 3228 18be 91d7 99be 97ac 1bbe 727f 883e
00000020: 7bb6 1e3d ce83 4a3e dd89 4dbd c97d a33e
0.34068623 -0.36545014 -0.27941906 -0.32120943 -0.14859083 -0.30047277 -0.15202557 0.26659733
0.038748246 0.19776842 -0.050180305 0.31931904
