backup/experimentos_pinn/modelos_salvos/modelo_hqnn_strong_mlp_n_2_b_1_n_qubits_3_n_l_5_seed_2025.pth (torch, 5175 bytes, 7 tensors)

pre.hidden_layers.0.weight f4 [2, 2]
00000000: 5382 0a3f 8385 01bc 0d03 9a3f 4553 55bc
0.5410511 -0.007905367 1.2032181 -0.013020341

pre.hidden_layers.0.bias f4 [2]
00000000: caf6 8abf 89a1 803e
-1.0856564 0.25123242

pre.output_layer.weight f4 [1, 2]
00000000: ed24 85bf bbf2 9bbf
-1.0401894 -1.218345

qnn.q_layer.weights f4 [5, 3, 3]
00000000: bf26 9440 481e bd40 bb0b fe3f 0681 2940
00000010: bb8b 9040 2bc0 3d3d 84ec c43e 16e6 a040
00000020: bd1e 1e40 ce72 8740 b2a4 be40 95e4 4c40
00000030: b787 e73f a693 2240 5ea2 273f 81ea 0640
00000040: 65b2 a740 18c4 a940 a700 863e c57c 0840
00000050: ebc3 5e40 2cd8 4340 b8b9 1e3f 2117 ae40
00000060: 3b4e 8e40 0893 e83f f24c c740 626a c440
00000070: 8ec3 a240 59bd 043f 1b51 c540 1368 6b40
00000080: 8d62 1940 a1d8 9040 e300 8b40 a29b e73d
00000090: 6596 a540 e4d7 c83f 6e17 8140 a55d 8440
000000a0: c58b 6d40 711f c540 b81a a040 2eb3 ba40
000000b0: 3d7c b040
4.6297297 5.9099464 1.984733 2.6485 4.517057 0.046325844 0.38461697 5.0280867
2.470626 4.2327642 5.9576044 3.2014515 1.8088292 2.5402617 0.6548213 2.108063
5.2405267 5.305187 0.26172373 2.1326153 3.480708 3.060069 0.62002134 5.4403234
4.4470496 1.816987 6.2281427 6.137986 5.0863714 0.5185142 6.1661506 3.6782272
2.39664 4.526444 4.3438582 0.113089815 5.1746087 1.5690885 4.03411 4.136431
3.7116559 6.160088 5.0032616 5.8343725 5.515166

to_qubits.weight f4 [3, 1]
00000000: dddb dbbf a36f 103f 1512 babc
-1.7176472 0.56420344 -0.0227137

to_qubits.bias f4 [3]
00000000: ffb2 763e 4ea9 003f 9f3a 58bf
0.24091719 0.5025834 -0.8446445

q_out.weight f4 [1, 3]
00000000: bf8b 38bf dfb7 4d3f 5b95 eb3d
-0.72088236 0.8035869 0.11503097
