backup/experimentos_pinn/modelos_salvos/modelo_cqnn_strong_n_qubits_4_k_1_n_vertex_6_n_l_1_seed_1973.pth (torch, 3936 bytes, 4 tensors)

qnn.q_layer.weights f4 [1, 4, 3]
000000 61 3a 94 40 70 7e e4 3f 1b 51 a6 40 7e 87 03 40
       4.6321263 1.7851086 5.1974006 2.0551448
000010 2b 37 1c 3f 8d 1e ae 3f 59 ee 9f 3e 29 b9 0d 40
       0.6102168 1.3603073 0.31236532 2.2144263
000020 4f 94 33 3e 88 02 8b 40 77 50 0b 40 0e d4 52 40
       0.17537044 4.344059 2.1767862 3.2941928

to_qubits.weight f4 [4, 2]
000000 e8 5e b6 3f 14 94 91 bc 4e c6 b5 3e 48 68 93 bb
       1.4247713 -0.017770804 0.35502857 -0.0044985153
000010 87 c1 38 bf 05 5b 0d 3c 17 48 1f bf 1c d2 f9 3b
       -0.721703 0.008627658 -0.62219375 0.007623924

to_qubits.bias f4 [4]
000000 e2 ee 5d be 94 98 8d be 44 17 80 3f 78 e7 0e 3f
       -0.21673158 -0.2765547 1.00071 0.55821943

q_out.weight f4 [1, 6]
000000 f6 2e f2 3e 70 84 d4 bc 5b 8d 57 3e f2 a1 e2 3e
       0.47301453 -0.025942057 0.21050017 0.4426418
000010 82 4c 26 bf 10 82 c4 be
       -0.6496049 -0.3838048
