backup/experimentos_pinn/lr05/modelos_salvos/modelo_mlp_n_5_b_1_seed_1994.pth (torch, 2863 bytes, 3 tensors)

hidden_layers.0.weight f4 [5, 2]
00000000: 1051 39be 3105 88bd f749 b63f e8ea 30bc
00000010: 68ce 08be a241 013d 24d8 d0bf f6e1 d03c
00000020: 6bf8 8f3f 7a2c 8b3a
-0.18097329 -0.06641615 1.4241322 -0.0107981935 -0.13359988 0.031556733 -1.6315961 0.025498372
1.1247686 0.0010618113

hidden_layers.0.bias f4 [5]
00000000: 4a46 94bf 67c2 27bf 566d 26bf f682 aabe
00000010: 873e ed3d
-1.158395 -0.6553101 -0.65010583 -0.3330304 0.11584192

output_layer.weight f4 [1, 5]
00000000: 49b7 0dbf 27a4 a23f c1e0 54bf 1a81 483f
00000010: 059a c2be
-0.55357796 1.2706345 -0.8315545 0.78321993 -0.38008133
