experimentos_pinn/modelos_salvos/modelo_cqnn_strong_n_qubits_4_k_2_n_vertex_7_n_l_5_seed_1926.pth (torch, 4128 bytes, 4 tensors)

qnn.q_layer.weights f4 [5, 4, 3]
0.9896537 3.078474 1.495659 5.4218664 3.0681775 1.6994265 3.899603 3.5101676
4.9968395 3.161492 1.7378173 3.1166909 0.998464 1.3571163 0.07477399 0.56809914
5.3007174 4.0781174 4.9513535 5.587395 5.7813067 5.148719 2.257474 1.3436831
5.116145 0.10873152 5.8623476 4.0205755 5.031675 4.719486 5.7342815 3.8100173
5.730611 4.172136 1.2593277 5.7583656 5.9072633 1.9826628 1.7285954 2.3062584
5.3972425 2.0280194 0.5122357 0.34307098 3.215395 0.6747975 2.1549428 2.9787943
2.315648 0.1160009 3.1320028 0.5606527 6.455862 2.0148032 1.8452109 4.3713994
5.067671 5.2464914 1.797131 2.9241908
00000000: f259 7d3f b805 4540 c171 bf3f ee7f ad40
00000010: 055d 4440 cf86 d93f 1893 7940 96a6 6040
00000020: 1ce6 9f40 e355 4a40 cc70 de3f dd77 4740
00000030: 569b 7f3f fdb5 ad3f 1b23 993d f26e 113f
00000040: 7a9f a940 f07f 8240 7d71 9e40 f1cb b240
00000050: 7700 b940 4ec2 a440 747a 1040 cffd ab3f
00000060: 76b7 a340 a2ae de3d 5a98 bb40 8ea8 8040
00000070: 7b03 a140 0806 9740 3c7f b740 53d7 7340
00000080: 2a61 b740 2382 8540 a631 a13f 8844 b840
00000090: 4d08 bd40 e5c7 fd3f 9d42 dd3f bd99 1340
000000a0: 36b6 ac40 12cb 0140 e121 033f 00a7 af3e
000000b0: 08c9 4d40 87bf 2c3f 95ea 0940 91a4 3e40
000000c0: 9433 1440 e191 ed3d bc72 4840 ef86 0f3f
000000d0: 6c96 ce40 89f2 0040 df2f ec3f 81e2 8b40
000000e0: 5c2a a240 42e3 a740 6308 e63f f125 3b40

to_qubits.weight f4 [4, 2]
-0.78228223 0.008345566 0.6002353 -0.0099965725 -1.0538577 0.01603249 -0.6848209 0.005897127
00000000: a643 48bf d7bb 083c 05a9 193f aac8 23bc
00000010: cfe4 86bf 9256 833c 6c50 2fbf b03c c13b

to_qubits.bias f4 [4]
-0.65155095 0.09784904 -0.037481256 0.2686414
00000000: 0bcc 26bf 1465 c83d f285 19bd 5e8b 893e

q_out.weight f4 [1, 7]
-0.015403751 0.2133443 0.05364526 0.43014178 0.33489618 -0.24304192 0.44842595
00000000: 0460 7cbc ee76 5a3e 22bb 5b3d 8b3b dc3e
00000010: 8377 ab3e fbdf 78be 1698 e53e
