experimentos_pinn/modelos_salvos/modelo_hqnn_strong_mlp_n_5_b_1_n_qubits_5_n_l_1_seed_1924.pth (torch, 5495 bytes, 7 tensors)

pre.hidden_layers.0.weight f4 [5, 2]
00000000: 381f 37c0 2ea2 d23d 17df 033f 1ac0 cebd
00000010: 9fa1 a5be 3148 8a3e d7ae 553d 8115 873e
00000020: 8dcc 273f 0ef4 86bd
-2.8612804 0.102848396 0.51512283 -0.10095234 -0.3234987 0.27008203 0.052168693 0.26383594
0.65546495 -0.065895185

pre.hidden_layers.0.bias f4 [5]
00000000: 2029 e53e 25a0 bebe edd9 27bf b5a4 fe3e
00000010: 35ef febe
0.44757938 -0.37231556 -0.65566903 0.49735036 -0.49791875

pre.output_layer.weight f4 [1, 5]
00000000: 19db 943e 7d1e afbe 69c1 50be 5ede 62be
00000010: 9032 1bbf
0.29073408 -0.34202948 -0.2038628 -0.22155139 -0.6062403

qnn.q_layer.weights f4 [1, 5, 3]
00000000: 9a00 2840 d1fa 7b40 cd55 733f 5159 fc3f
00000010: 8986 3c40 0260 7540 e475 fb3f f491 be40
00000020: 7712 aa3f 9c0a a840 a49b 2740 0ec9 9e3f
00000030: cd03 7540 da58 5e40 4e20 9a40
2.6250367 3.9371836 0.95052797 1.9714757 2.9457114 3.8339849 1.9645352 5.9553165
1.3286885 5.251295 2.6188745 1.2405107 3.828357 3.474173 4.8164434

to_qubits.weight f4 [5, 1]
00000000: 0328 90bf 7033 31bf 6666 e83d 8162 093f
00000010: 2ae0 d83d
-1.1262211 -0.6921911 0.11347656 0.5366593 0.10589631

to_qubits.bias f4 [5]
00000000: ab79 833f 8fd9 70bf 8746 f33e bcdb b53e
00000010: 12d6 a83e
1.0271505 -0.9408197 0.47514746 0.35519207 0.32975823

q_out.weight f4 [1, 5]
00000000: 0e49 de3c 7871 25bf 49c5 2dbf da8e 193f
00000010: 7022 5fbf
0.027134445 -0.64626265 -0.6787916 0.599836 -0.8716192
