experimentos_pinn/modelos_salvos/modelo_qnn_basic_n_qubits_7_n_l_2_seed_1925.pth (torch, 3429 bytes, 4 tensors)

qnn.q_layer.weights f4 [2, 7]
000000 d8 23 c2 40 b4 66 67 40 4a 4d 1c 40 be ff 71 40
       6.0668755 3.6156435 2.4422174 3.7812343
000010 5e 0c 59 40 39 2b 3c 40 dc 4d 74 40 58 48 9c 3e
       3.3913798 2.940138 3.8172522 0.30523944
000020 3a 18 49 40 6a 53 57 40 01 51 30 40 1c ee 0a 40
       3.1421037 3.3644662 2.754944 2.170783
000030 32 01 ab 40 0b 97 3a 40
       5.343896 2.915469

to_qubits.weight f4 [7, 2]
000000 6c 0e c8 3e 23 7f 35 3d 19 41 aa be be d1 d4 3d
       0.39073503 0.0443107 -0.3325279 0.10391568
000010 43 23 8e 3f 40 df f5 bb c0 04 ed 3e 00 01 04 bd
       1.1104511 -0.00750342 0.46292686 -0.032227516
000020 8c 3f b3 3e e7 f0 f1 bb b8 fe d2 3e 9e 6d 8a bd
       0.3500942 -0.007383454 0.4120996 -0.06759189
000030 a7 c0 3c bf a9 23 5d 3c
       -0.73731464 0.013497272

to_qubits.bias f4 [7]
000000 f8 cf 0b 3f b3 78 f5 3e 08 8c 86 bf ab bc 65 3e
       0.5461421 0.4794365 -1.0511484 0.22435252
000010 bf b1 42 bf 9f d6 26 3f c1 0b d8 3e
       -0.7605247 0.65171236 0.42196468

q_out.weight f4 [1, 7]
000000 ea 8b 9a 3f 52 e0 e9 3e e0 3d fe 3d a9 81 64 bf
       1.2073948 0.45678955 0.124141455 -0.89260346
000010 a9 15 71 3e fc 1a b0 bf 1c 51 2d 3d
       0.23543419 -1.3758235 0.04231368
