experimentos_pinn/modelos_salvos/modelo_cqnn_strong_n_qubits_4_k_3_n_vertex_7_n_l_2_seed_1962.pth (torch, 3936 bytes, 4 tensors)

qnn.q_layer.weights f4 [2, 4]
3.040725 3.5495818 5.938832 1.912685 4.466098 6.282635 3.7956202 6.283181
00000000: 3d9b 4240 592c 6340 e90a be40 ddd2 f43f
00000010: 46ea 8e40 590b c940 71eb 7240 d20f c940

to_qubits.weight f4 [4, 2]
0.5521256 -0.006524933 1.8054562 -0.0230423 1.6376727 -0.019770559 -0.56097925 0.007830801
00000000: 1a58 0d3f 1bcf d5bb 3019 e73f 35c3 bcbc
00000010: 429f d13f def5 a1bc 569c 0fbf c34c 003c

to_qubits.bias f4 [4]
-0.49928075 -1.0420512 1.1619439 0.57349837
00000000: baa1 ffbe ef61 85bf 94ba 943f cad0 123f

q_out.weight f4 [1, 7]
-0.38428733 -0.37772766 -0.041427918 0.36292022 0.3983726 0.29431567 0.26708472
00000000: 4fc1 c4be 8565 c1be 52b0 29bd aed0 b93e
00000010: 7ef7 cb3e 8bb0 963e 54bf 883e
