experimentos_pinn/modelos_salvos/modelo_hqnn_strong_mlp_n_2_b_1_n_qubits_2_n_l_3_seed_1958.pth (torch, 5175 bytes, 7 tensors)

pre.hidden_layers.0.weight f4 [2, 2]
00000000: 93d3 99bf a749 753c 2c40 a93f 75bc 83bc
-1.2017692 0.014971173 1.3222709 -0.016081074

pre.hidden_layers.0.bias f4 [2]
00000000: 847e 123f 1d14 363f
0.572243 0.7112444

pre.output_layer.weight f4 [1, 2]
00000000: 444b 2f3f 266c 663f
0.6847422 0.9000877

qnn.q_layer.weights f4 [3, 2, 3]
00000000: 1c1d 8c40 8334 0c40 8d0a 8c40 a769 c340
00000010: 8fe0 15bc 53f4 e33f 4ba7 9f40 d274 b440
00000020: 9dfb 6a40 1a2f 3240 98a3 6c40 dc19 0040
00000030: a409 b640 c800 e9bd 8c35 fe3f 3259 b340
00000040: 8e5a 1d40 ee53 6c40
4.3785534 2.190705 4.376288 6.106647 -0.009147777 1.7808937 4.9891715 5.6392603
3.6716073 2.7841249 3.697485 2.0015783 5.688677 -0.11377102 1.9860091 5.604638
2.458652 3.6926227

to_qubits.weight f4 [2, 1]
00000000: c9d7 adbf d30b 643f
-1.3581477 0.8908054

to_qubits.bias f4 [2]
00000000: ab30 2fbf c992 4b3d
-0.68433636 0.049700532

q_out.weight f4 [1, 2]
00000000: fc8f 9dbf 625d 37bf
-1.2309566 -0.71626866
