experimentos_pinn/modelos_salvos/modelo_cqnn_strong_n_qubits_4_k_3_n_vertex_4_n_l_5_seed_1958.pth (torch, 4128 bytes, 4 tensors)

qnn.q_layer.weights f4 [5, 4, 3]
0	0x4080da74	4.0266666
1	0x3feb63f9	1.8389884
2	0x4099a085	4.8008447
3	0x40c36a5a	6.1067324
4	0xbda9006c	-0.082520336
5	0x3fdc1ed5	1.7196909
6	0x40a64272	5.195611
7	0x40994ed3	4.790872
8	0x404f80ef	3.2422445
9	0x405807a3	3.375466
10	0x40926535	4.5748544
11	0x400b00c8	2.1719227
12	0x40b82c34	5.755396
13	0x3f028509	0.50984246
14	0x4010e564	2.264001
15	0x409c2416	4.879405
16	0x40364c3e	2.8484035
17	0x407e688b	3.9751308
18	0x3f74f487	0.9568562
19	0x3fe7c237	1.8106145
20	0x40882fc5	4.2558312
21	0x4015ebee	2.342525
22	0x404dcad2	3.2155042
23	0x40af3fe4	5.476549
24	0x4071dae1	3.7789843
25	0x40bbc1bb	5.8673987
26	0x4085351b	4.1627326
27	0x3e01d82c	0.1268012
28	0x40bb846d	5.8599153
29	0x40095894	2.1460314
30	0x40808dba	4.0173006
31	0x4020c172	2.511807
32	0x400c82e0	2.195488
33	0x3f59fbb9	0.85149723
34	0x3f99c570	1.2013378
35	0x3f6cebb2	0.9254714
36	0x4098e78a	4.778264
37	0x405e11ec	3.4698439
38	0x408df3e7	4.436023
39	0x40070cde	2.1101604
40	0x404cc190	3.199314
41	0x409d5d0c	4.9176083
42	0x409c8324	4.8910084
43	0x4032f81e	2.7963939
44	0x3faaa01d	1.3330113
45	0x408f1fd2	4.4726343
46	0x40a81e33	5.2536864
47	0x40305fe7	2.7558534
48	0x40058f3e	2.0868678
49	0x4094c952	4.649575
50	0x40802b30	4.005272
51	0x3ff739dc	1.9314532
52	0x4054bae9	3.323908
53	0x402f8e8b	2.7430751
54	0x40c577c8	6.1708717
55	0x3fd643e1	1.6739465
56	0x3f7a52bf	0.9778251
57	0x409c8170	4.8908005
58	0x3f21ccc4	0.6320307
59	0x4093224f	4.597938

to_qubits.weight f4 [4, 2]
0	0xbebd078c	-0.3691982
1	0xbd3e1bec	-0.046413347
2	0x3f8a0cb3	1.0785125
3	0x3e0a5f40	0.13512897
4	0x3f6839a8	0.90712976
5	0x3dd72f8e	0.10507117
6	0x3f7706fd	0.9649504
7	0xbe580851	-0.21096922

to_qubits.bias f4 [4]
0	0x3ea5bb98	0.32369685
1	0xbcffb8f7	-0.031216128
2	0x3e43680c	0.1908266
3	0xbf269d0f	-0.650834

q_out.weight f4 [1, 4]
0	0x3d72b7cd	0.059257317
1	0x3ea08970	0.31354856
2	0xbebe4d8e	-0.37168545
3	0x3ebd55e2	0.36979586
