experimentos_pinn/modelos_salvos/modelo_cqnn_basic_n_qubits_4_k_3_n_vertex_3_n_l_3_seed_2012.pth (torch, 3861 bytes, 4 tensors)

qnn.q_layer.weights f4 [3, 4]
0	0x3fe2932f	1.7701167
1	0x40a1f7fc	5.0615215
2	0x409ce749	4.903233
3	0x3fe86647	1.8156213
4	0x405e2802	3.471192
5	0x3f5c439d	0.8604067
6	0x40003769	2.003382
7	0x3fc57980	1.5427704
8	0x3f25e9fd	0.6481016
9	0x3ed8b285	0.423237
10	0x3fc41404	1.5318608
11	0x4087dbdf	4.2455897

to_qubits.weight f4 [4, 2]
0	0xbecf255d	-0.40458193
1	0x3c0bd928	0.008535661
2	0x3faa9563	1.3326839
3	0x3bbfc3f1	0.0058522155
4	0xbf89139d	-1.070911
5	0x3cffa688	0.031207338
6	0x3edd8db2	0.43272167
7	0x3d49cd60	0.049268126

to_qubits.bias f4 [4]
0	0x3f102ec5	0.56321365
1	0xbf1ba572	-0.60799325
2	0xbeb6b11c	-0.35682
3	0x3f29c134	0.6631043

q_out.weight f4 [1, 3]
0	0xbf52f121	-0.82399184
1	0xbe1f6285	-0.15564926
2	0x3f2ad77a	0.6673504
