experimentos_pinn/modelos_salvos/modelo_qnn_basic_n_qubits_4_n_l_5_seed_1924.pth (torch, 3429 bytes, 4 tensors)

qnn.q_layer.weights f4 [5, 4]
00000000: ad8e 2c40 7407 9740 85b4 343f 2ea6 f93f
00000010: f557 7240 99e2 4d40 2295 1540 eeeb bb40
00000020: c65b cd3f 8661 bc40 7c20 703f 16cd 7b3f
00000030: 50ce 9740 19b6 6640 0ab1 9440 dbd2 8f3e
00000040: dc22 e63f 0d48 ac40 c6a1 a33f 480b 3e3f
2.6962082 4.71966 0.7058795 1.9503839 3.7866185 3.2169554 2.3372273 5.87255
1.6043632 5.8869047 0.9379957 0.9835981 4.7439346 3.6048644 4.646611 0.28090557
1.7979388 5.3837953 1.2783744 0.74235964

to_qubits.weight f4 [4, 2]
00000000: a43f 633f 5f9f f9bd cd33 4d3f ab1e c13d
00000010: 3f2a 5abf e3ec d8bd f8ac 893f 1827 05be
0.8876898 -0.12188601 0.80157167 0.094296776 -0.8522071 -0.105920576 1.0755911 -0.13003194

to_qubits.bias f4 [4]
00000000: bbf9 803e 40a5 2b3e f00c c23d 0e30 263d
0.2519053 0.16762257 0.09475124 0.040573172

q_out.weight f4 [1, 4]
00000000: 95ea 33bf e29f c5be 45b5 9ebf 83ae 4bbf
-0.7027982 -0.38598543 -1.2399069 -0.7956316
