experimentos_pinn/modelos_salvos/modelo_mlp_n_10_b_3_seed_1997.pth (torch, 4993 bytes, 7 tensors)

hidden_layers.0.weight f4 [10, 2]
-0.4327125 0.39293435 -0.7509979 -0.12913312 0.07543234 0.46868053 0.47446567 0.07456678
-1.2412007 -0.06748745 -0.76567185 -0.017080517 -0.28036872 -0.30887648 0.605601 0.043486204
0.8291436 -0.15945922 -0.2210941 0.15663098
00000000: 7e8c ddbe b12e c93e 6641 40bf 793b 04be
00000010: 457c 9a3d e5f6 ef3e 2aed f23e 78b6 983d
00000020: aadf 9ebf dc36 8abd 1203 44bf 71ec 8bbc
00000030: 7d8c 8fbe 0f25 9ebe ab08 1b3f 971e 323d
00000040: c142 543f 4749 23be 7e66 62be df63 203e

hidden_layers.0.bias f4 [10]
-0.45768568 0.05243153 0.0522951 -0.47953305 -0.34277126 0.11744581 0.57302195 -0.33329087
-0.71959716 -0.35163146
00000000: c755 eabe 72c2 563d 6333 563d 5b85 f5be
00000010: b77f afbe 6e87 f03d 91b1 123f 1aa5 aabe
00000020: 8537 38bf 0a09 b4be

hidden_layers.1.weight f4 [10, 10]
-0.07983546 -0.14240791 -0.104176834 0.6153772 -0.02064688 -0.267295 -0.41178474 0.36136985
0.3385215 -0.1846996 -0.30812743 -0.08877241 -0.09349614 0.06788226 0.04511389 -0.38472176
0.016694896 0.3890489 -0.023649134 -0.0642729 0.03233424 -0.11670325 0.22835058 0.020707456
0.23355107 -0.09151639 0.0925454 0.20320182 -0.15898903 0.114089645 0.01516667 -0.102425694
-0.119345054 -0.19689763 -0.065508634 0.12001309 0.15358934 -0.2897392 -0.33988616 -0.04821012
-0.76389086 -0.9907024 -0.35807037 1.4312778 -0.79527825 -1.119564 -0.5962195 1.2304665
0.6352885 -0.38140637 0.056474157 -0.23258363 -0.21376768 0.15872791 0.29865196 -0.13180593
0.16777678 -0.16161901 0.08404552 0.3372293 0.11018749 0.22463872 -0.022062715 -0.08060036
-0.11577841 -0.18018265 0.018065194 0.025894884 -0.34193096 0.3152331 0.121003956 -0.054571945
-0.22057757 0.747988 0.21046633 -0.39443627 -0.35612345 0.4020635 0.6044335 -0.3217532
-0.055214215 -0.18794388 0.0349671 0.228119 -0.24248526 -0.31991878 -0.16569771 -0.028109848
-0.049751908 -0.060836267 0.40511438 0.25810033 -0.18358989 -0.07803519 0.034403563 0.29067904
0.13046335 -0.39166728 -0.34686902 -0.058030907
00000000: c680 a3bd 61d3 11be aa5a d5bd 5c89 1d3f
00000010: a523 a9bc e4da 88be 73d5 d2be 7805 b93e
00000020: b152 ad3e e421 3dbe e1c2 9dbe 4fce b5bd
00000030: e77a bfbd db05 8b3d 58c9 383d 40fa c4be
00000040: bcc3 883c 6b31 c73e d4bb c1bc 83a1 83bd
00000050: e870 043d 1d02 efbd bcd4 693e afa2 a93c
00000060: 0328 6f3e f26c bbbd 7188 bd3d 2314 503e
00000070: 05ce 22be d5a7 e93d a07d 783c 90c4 d1bd
00000080: 2e6b f4bd 889f 49be 6429 86bd 6cc9 f53d
00000090: 8646 1d3e b258 94be 8f05 aebe fa77 45bd
000000a0: 5a8e 43bf ac9e 7dbf 0055 b7be 1c34 b73f
000000b0: 5b97 4bbf e04d 8fbf d7a1 18bf ed7f 9d3f
000000c0: 44a2 223f b247 c3be 7251 673d 672a 6ebe
000000d0: eae5 5abe 9289 223e e9e8 983e 22f8 06be
000000e0: adcd 2b3e 747f 25be 0f20 ac3d 52a9 ac3e
000000f0: fba9 e13d b107 663e debc b4bc cd11 a5bd
00000100: 3b1d edbd cd81 38be 75fd 933c 8221 d43c
00000110: 9311 afbe 3c66 a13e ecd0 f73d d586 5fbd
00000120: 16df 61be 247c 3f3f 7c84 573e 8df3 c9be
00000130: d055 b6be 44db cd3e 27bc 1a3f d6bc a4be
00000140: 4d28 62bd 5c74 40be a939 0f3d 0798 693e
00000150: 0e4e 78be 65cc a3be a9ac 29be a046 e6bc
00000160: a8c8 4bbd 732f 79bd 276b cf3e ba25 843e
00000170: fdfe 3bbe ead0 9fbd c0ea 0c3d e2d3 943e
00000180: 2f98 053e 9d88 c8be d198 b1be d1b1 6dbd

hidden_layers.1.bias f4 [10]
-0.18301597 -0.30054596 -0.287793 0.14402953 -0.19424754 -0.33025485 -0.13847432 -0.22050497
0.20789267 0.038937844
00000000: 8a68 3bbe 29e1 99be 9b59 93be 7a7c 133e
00000010: d4e8 46be 2a17 a9be 36cc 0dbe 0ecc 61be
00000020: d1e1 543e 4a7d 1f3d

hidden_layers.2.weight f4 [10, 10]
0.2293627 0.21647307 -0.15815723 -0.24377704 1.9076624 -0.16489524 -0.3622493 0.19987442
0.3152228 -0.510308 -0.2637097 0.31592795 0.23429987 -0.07079261 0.35238302 -0.25520936
0.34765726 -0.15083231 0.13010804 -0.023722485 -0.23954824 -0.17928064 0.07991616 0.120240144
0.7126541 0.36627242 0.35304162 -0.33477893 0.025964448 -0.19826116 0.22731565 -0.01279356
-0.23380738 0.10505034 -0.020602189 -0.22570091 -0.24711533 0.05963559 0.25807416 0.0991425
0.04913602 0.25166628 0.07405513 0.23821789 0.5735981 0.26392514 0.25192106 -0.45552018
-0.0059188623 0.16120173 0.42633587 0.34118327 0.12291999 0.002124543 0.78643286 0.3134053
-0.37012866 0.41076812 0.27253446 -0.5434171 0.099589765 -0.007554424 -0.24221237 -0.08759898
-0.19107133 -0.3367431 -0.19915691 -0.17174695 0.21129358 -0.14120765 -0.48939458 -0.4134898
0.10842665 0.25064245 0.21858686 -0.065592654 0.29994544 -0.4055148 -0.1433603 0.11503321
0.0155399535 -0.02770157 0.19411601 0.07475304 -0.09176657 0.06311291 -0.009290423 0.2778232
0.18779376 -0.21955231 0.1833818 -0.017708726 -0.113221064 0.20042457 0.29888353 0.24381554
0.34182143 -0.3853045 -0.25649878 0.0024711872
00000000: 0ede 6a3e 1eab 5d3e f8f3 21be b0a0 79be
00000010: 482e f43f 4cda 28be be78 b9be e1ab 4c3e
00000020: e264 a13e 8ca3 02bf f504 87be 4fc1 a13e
00000030: 4eec 6f3e b7fb 90bd 8c6b b43e cdaa 82be
00000040: 2200 b23e c973 1abe 0b3b 053e a855 c2bc
00000050: 224c 75be 5895 37be 15ab a33d 7740 f63d
00000060: 8070 363f 0f88 bb3e dfc1 b43e 2568 abbe
00000070: 65b3 d43c f904 4bbe 6fc5 683e 149c 51bc
00000080: 346b 6fbe a224 d73d ecc5 a8bc 241e 67be
00000090: cd0b 7dbe 7344 743d 4c22 843e 390b cb3d
000000a0: da42 493d 67da 803e 37aa 973d 64ef 733e
000000b0: 53d7 123f 3221 873e ccfb 803e f139 e9be
000000c0: 04f3 c1bb 1112 253e b248 da3e 93af ae3e
000000d0: 7abd fb3d eb3b 0b3b aa53 493f a976 a03e
000000e0: 8181 bdbe 3350 d23e a389 8b3e 621d 0bbf
000000f0: b8f5 cb3d 1a8b f7bb 8506 78be 1867 b3bd
00000100: 34a8 43be 9769 acbe caef 4bbe 6fde 2fbe
00000110: 585d 583e bd98 10be ed91 fabe efb4 d3be
00000120: cb0e de3d 3554 803e 3cd5 5f3e 7155 86bd
00000130: 7392 993e a39f cfbe 0bcd 12be 8896 eb3d
00000140: 4a9b 7e3c 67ee e2bc 59c6 463e 1f18 993d
00000150: 1df0 bbbd 5741 813d dc36 18bc d83e 8e3e
00000160: 024d 403e 52d2 60be 70c8 3b3e e411 91bc
00000170: 72e0 e7bd 193c 4d3e 4307 993e c8aa 793e
00000180: 3803 af3e a246 c5be cf53 83be a4f3 213b

hidden_layers.2.bias f4 [10]
0.4261028 -0.3544024 -0.034130767 -0.24188276 -0.12470763 -0.06675117 0.1222836 0.33799225
-0.053290892 -0.054919142
00000000: 252a da3e 3b74 b5be b4cc 0bbd 1db0 77be
00000010: b766 ffbd d6b4 88bd d36f fa3d 520d ad3e
00000020: 8d47 5abd e5f2 60bd

output_layer.weight f4 [1, 10]
0.16424689 -0.19726522 -0.109138384 0.16579214 -0.32333097 0.37811852 0.2530627 -0.21935402
0.10450264 -0.13895895
00000000: 5630 283e e5ff 49be f283 dfbd 6ac5 293e
00000010: a38b a5be c098 c13e 6f91 813e 579e 60be
00000020: 7b05 d63d 414b 0ebe
