experimentos_pinn/modelos_salvos/modelo_hcqnn_basic_mlp_n_2_b_1_n_qubits_4_k_3_n_vertex_12_n_l_3_seed_1926.pth (torch, 5991 bytes, 7 tensors)

pre.hidden_layers.0.weight f4 [2, 2]
00000000: a2dd 59bf 9854 333c 2e62 84bf 0c9e 423c
-0.8510381 0.010945462 -1.0342462 0.011878502

pre.hidden_layers.0.bias f4 [2]
00000000: 83b8 c93e 13ca 243e
0.39398584 0.1609271

pre.output_layer.weight f4 [1, 2]
00000000: 18a5 5c3f 1c64 183f
0.86189413 0.59527755

qnn.q_layer.weights f4 [3, 4]
00000000: c24b 673f 25b9 7340 7330 f03f 9281 a940
00000010: 31cb 3640 bdfa 1040 2503 5a40 45de 6a40
00000020: 7e66 a340 ab90 4040 530a ef3f cb85 4140
0.9034997 3.8081753 1.8764786 5.2970667 2.8561518 2.2653039 3.406442 3.6698163
5.1062613 3.0088298 1.8675026 3.023791

to_qubits.weight f4 [4, 1]
00000000: e9f4 4b3f 8eb1 36bf fd0e 99bf b426 f33e
0.7967058 -0.71364677 -1.1957699 0.47490466

to_qubits.bias f4 [4]
00000000: 39dc 8ebf abb8 5d3f 94cc e63e b19c 113f
-1.1160957 0.86609906 0.45077956 0.5687972

q_out.weight f4 [1, 12]
00000000: 7870 ce3d c96e 2f3e 2616 923e 672d 993e
00000010: 2203 413e 96fc 90be 2579 a33e 95e6 9d3e
00000020: fe95 f0bd 92fc 08be 6503 b7bd 6e95 513e
0.100800455 0.17132105 0.28532523 0.29917452 0.18848851 -0.28317708 0.31928363 0.30839983
-0.11747359 -0.13377598 -0.08936194 0.20467159
