experimentos_pinn/modelos_salvos/modelo_hqnn_strong_mlp_n_3_b_5_n_qubits_3_n_l_5_seed_1926.pth (torch, 8174 bytes, 15 tensors)

pre.hidden_layers.0.weight f4 [3, 2]
0	0x3dae54b3	0.08512249
1	0xbe721153	-0.23639421
2	0xbe9941eb	-0.29933104
3	0xbe0fa97a	-0.14029494
4	0xbf40faf0	-0.753829
5	0x3db537af	0.088485114

pre.hidden_layers.0.bias f4 [3]
0	0xbf7bf0e5	-0.9841445
1	0x3d44c7d9	0.048042152
2	0xbe7f16fa	-0.24911109

pre.hidden_layers.1.weight f4 [3, 3]
0	0x3d868172	0.065676585
1	0x3ef61b63	0.4806777
2	0x3f202b02	0.62565625
3	0x3debdb76	0.11516468
4	0x3dcacc7b	0.09902283
5	0x3e644e7f	0.22295569
6	0xbf003071	-0.50073916
7	0xbdfb2096	-0.12262075
8	0x3ed119d4	0.40840018

pre.hidden_layers.1.bias f4 [3]
0	0xba83de5a	-0.0010060773
1	0xbe04ba00	-0.12961578
2	0x3df1c413	0.11804976

pre.hidden_layers.2.weight f4 [3, 3]
0	0xbf316cfd	-0.6930693
1	0x3c847c12	0.016172443
2	0xbdbdbd03	-0.09264567
3	0x3ef02d15	0.46909395
4	0xbd07842e	-0.03308504
5	0x3eed2384	0.4631616
6	0x3ef43aba	0.47701055
7	0x3e900564	0.28129113
8	0x3a7efe78	0.000972725

pre.hidden_layers.2.bias f4 [3]
0	0x3dcba2eb	0.099431835
1	0x3f0364c7	0.5132565
2	0x3d930c16	0.071800396

pre.hidden_layers.3.weight f4 [3, 3]
0	0x3f2b36c9	0.6688047
1	0xbf42446e	-0.75885665
2	0x3d4f884c	0.050667092
3	0xbf219a4c	-0.63126063
4	0x3ebab8dd	0.36469164
5	0x3f5b9a65	0.8578246
6	0xbf13e0e6	-0.5776504
7	0x3f48daa6	0.7845863
8	0x3ec89152	0.3917337

pre.hidden_layers.3.bias f4 [3]
0	0x3e398fb2	0.18121222
1	0xbe930114	-0.2871176
2	0x3e8fadbd	0.2806224

pre.hidden_layers.4.weight f4 [3, 3]
0	0x3ec2b01e	0.38024992
1	0xbeddbd2c	-0.4330839
2	0xbf47458b	-0.7784049
3	0xbf120c8e	-0.57050407
4	0x3ec7e2ad	0.39040127
5	0x3f23f504	0.6404574
6	0xbf11521d	-0.5676592
7	0x3e78dd7f	0.24303244
8	0x3ec07725	0.375909

pre.hidden_layers.4.bias f4 [3]
0	0x3e72bb13	0.23704176
1	0x3eca4a6b	0.395099
2	0xbdc5553b	-0.09635397

pre.output_layer.weight f4 [1, 3]
0	0x3f05ced2	0.5226871
1	0xbf22e369	-0.6362825
2	0xbf1a3b32	-0.60246575

qnn.q_layer.weights f4 [5, 3, 3]
0	0x3f7be7cd	0.98400575
1	0x407492c3	3.8214576
2	0x3fd50444	1.6641927
3	0x40b86c65	5.7632318
4	0x4029534b	2.6457088
5	0x3fd6be31	1.6776792
6	0x4083c461	4.117722
7	0x4062170c	3.5326567
8	0x40993086	4.7871733
9	0x4052b2f3	3.2921722
10	0x3ff76a5f	1.9329337
11	0x40474e2c	3.1141462
12	0x3fb12278	1.3838644
13	0x3f8d0e78	1.102004
14	0x3e199307	0.14997493
15	0x3ec3f814	0.38275206
16	0x40ac41fc	5.3830547
17	0x4080ec45	4.0288415
18	0x40a319a1	5.0968785
19	0x40b39245	5.611605
20	0x40ae3d93	5.4450164
21	0x409fc03e	4.992217
22	0x402e834d	2.726764
23	0x3fcc08ab	1.5940145
24	0x40a0d9d8	5.0265923
25	0x3c579234	0.013157416
26	0x40b968ce	5.7940435
27	0x40856371	4.168389
28	0x409d524b	4.9162955
29	0x409c52c4	4.885103
30	0x40b90936	5.7823744
31	0x406cb69f	3.6986463
32	0x40b67ab2	5.7024775
33	0x408bc50d	4.367804
34	0x3f815ff8	1.0107412
35	0x40b2668a	5.575017
36	0x40c6364b	6.1941276
37	0x3fddcb4a	1.7327664
38	0x3fd88979	1.6916953
39	0x4015af18	2.3388119
40	0x40b44be6	5.634265
41	0x3fd7385e	1.6814077
42	0x3e8d1675	0.27556196
43	0x3ec93fc7	0.3930647
44	0x40446266	3.0685058

to_qubits.weight f4 [3, 1]
0	0xbefc85ec	-0.49320924
1	0x3f878dc7	1.0590142
2	0xbfa24ef3	-1.2680343

to_qubits.bias f4 [3]
0	0x3f1cf7cf	0.61315626
1	0xbf098f09	-0.5373388
2	0xbefb6201	-0.4909821

q_out.weight f4 [1, 3]
0	0x3f3e9b57	0.7445578
1	0xbf6f34c9	-0.9343992
2	0x3f0940e4	0.5361464
