experimentos_pinn/modelos_salvos/modelo_cqnn_basic_n_qubits_4_k_3_n_vertex_12_n_l_2_seed_1925.pth (torch, 3936 bytes, 4 tensors)

qnn.q_layer.weights f4 [2, 4]
000000 c3 bc 9b 40 a3 82 2d 40 13 ae 4c 40 05 67 86 40
       4.866792 2.7110984 3.1981246 4.2000756
000010 5f e1 57 40 d8 0f 49 40 ce bf 5d 40 52 b3 7a 3e
       3.3731306 3.141592 3.4648318 0.24482468

to_qubits.weight f4 [4, 2]
000000 e4 75 0c 3f 65 e8 e2 bb d0 56 63 bc 20 d5 2c ba
       0.54867387 -0.0069246762 -0.013875678 -0.00065930374
000010 44 82 11 3d eb ee 04 be 36 a5 a1 3f 3f 72 66 bc
       0.03552462 -0.12981765 1.2628543 -0.014065324

to_qubits.bias f4 [4]
000000 41 72 06 bf ec b4 5a bf 6a f2 3a 3d a3 0e cb 3e
       -0.5251809 -0.85432315 0.04564134 0.39659604

q_out.weight f4 [1, 12]
000000 c4 ea 82 3e 94 bb 05 3d 47 65 ac 3f 3c 5f 17 be
       0.25569737 0.03264959 1.3468407 -0.14782423
000010 c4 30 ae be db 17 d3 be 0b 5b 91 be 78 ea 80 be
       -0.3402158 -0.41229138 -0.28389773 -0.25178885
000020 f4 0f 10 be ea a0 de 3d b3 21 90 bd e2 25 75 3e
       -0.14068586 0.10870536 -0.070376776 0.23940232
